…
s://localhost:8080/"},"id":"Y0M4ahGdKnyq","executionInfo":{"status":"ok","timestamp":1703209013215,"user_tz":180,"elapsed":1761,"user":{"displayName":"Thayla Luzardo","userId":"10688874608445037589"}},"outputId":"39978b51-2d64-42b3-e704-f55d12233e69"},"execution_count":null,"outputs":[{"output_type":"stream","name":"stdout","text":["Model: \"sequential\"\n","_________________________________________________________________\n"," Layer (type)                Output Shape              Param #   \n","=================================================================\n"," conv2d (Conv2D)             (None, 32, 32, 16)        3904      \n","                                                                 \n"," max_pooling2d (MaxPooling2  (None, 16, 16, 16)        0         \n"," D)                                                              \n","                                                                 \n"," dropout (Dropout)           (None, 16, 16, 16)        0         \n","                                                                 \n"," flatten (Flatten)           (None, 4096)              0         \n","                                                                 \n"," dense (Dense)               (None, 512)               2097664   \n","                                                                 \n"," dropout_1 (Dropout)         (None, 512)               0         \n","                                                                 \n"," dense_1 (Dense)             (None, 2)                 1026      \n","                                                                 \n","=================================================================\n","Total params: 2102594 (8.02 MB)\n","Trainable params: 2102594 (8.02 MB)\n","Non-trainable params: 0 (0.00 Byte)\n","_________________________________________________________________\n"]}]},{"cell_type":"code","source":["history = model.fit(X_train, 
…
